runs/cartpole3.pt (torch, 6065 bytes, 4 tensors)

fc1.weight f4 [128, 4]
0	0xbf0bb88d	-0.5457848
1	0x3e251937	0.161229
2	0xbecfca49	-0.4058402
3	0xbf082c5c	-0.5319269
4	0x3efe2337	0.49636242
5	0x3f6c1d7b	0.92232484
6	0x3fd80d5a	1.6879075
7	0x3f9e6f13	1.2377647
8	0xbefd3b84	-0.4945947
9	0xbf11bd4c	-0.5692947
10	0xbdcf15cc	-0.10111579
11	0xbe0c370f	-0.13692878
12	0xbb752020	-0.0037403181
13	0xbe266a85	-0.16251571
14	0x3eb48ed1	0.3526521
15	0xbf046415	-0.51715213
16	0x3ea5b1ae	0.3236212
17	0xbf78f7fa	-0.9725338
18	0xbf90f808	-1.1325693
19	0xbf766107	-0.962418
20	0x3d222bcd	0.039592553
21	0xbc18c929	-0.009325304
22	0xbef4b5bc	-0.47794902
23	0x3eb1a870	0.3469882
24	0xbe852683	-0.26005945
25	0x3c96c4c3	0.01840437
26	0xbe9caca3	-0.3060046
27	0x3e2fb5fe	0.17159268
28	0x3f1e761b	0.61898965
29	0x3f828038	1.0195379
30	0x3f849b57	1.0359906
31	0x3f04f39f	0.51934236
32	0xbeded95e	-0.43525213
33	0xbf1a377d	-0.6024092
34	0xbef02183	-0.46900567
35	0xbef9d122	-0.48792368
36	0xbf135c3f	-0.5756263
37	0xbf3b8c75	-0.73261195
38	0xbee2064f	-0.44145438
39	0xbea1a288	-0.31569314
40	0xbf0fbb0c	-0.56144786
41	0xbecc08c1	-0.3985043
42	0x3e5c9f7d	0.21545215
43	0xbf27fe87	-0.6562275
44	0xbe68bbd0	-0.22727895
45	0xbead47d8	-0.33843875
46	0xbe7a66ce	-0.2445328
47	0xbe3cc8f7	-0.18436037
48	0x3e6abc5e	0.22923419
49	0xbf0bd3bc	-0.54619956
50	0xbe5ee3de	-0.21766612
51	0x3d1e30ea	0.038620867
52	0xbecf5570	-0.4049487
53	0x3e40648f	0.1878836
54	0xbf222bd9	-0.63348156
55	0x3dc115b9	0.094279714
56	0x3edee4bd	0.43533888
57	0xbea17c00	-0.31539917
58	0xc0080d14	-2.1257982
59	0xbf317ec6	-0.69334066
60	0xbf01d8da	-0.50721514
61	0xbec31eef	-0.38109538
62	0xbfbe8f9d	-1.4887577
63	0xbf576364	-0.84136033
64	0xbf1fab74	-0.6237099
65	0xbf2f2ea0	-0.6843052
66	0xbe5deb2f	-0.21671747
67	0xbeee2e97	-0.4651992
68	0x3bc5b1c1	0.006033153
69	0xbe4d8720	-0.20071077
70	0xbee3ded4	-0.44505942
71	0xbe59b501	-0.21260454
72	0xbf1fed01	-0.62471014
73	0xbe1e5715	-0.15462907
74	0xbf68aeb6	-0.9089159
75	0xbf606ff7	-0.87670845
76	0x3f74ae34	0.9557831
77	0x3f698814	0.91223264
78	0x3fe392df	1.7779197
79	0x3f321318	0.69560385
80	0xbf0eca2b	-0.55777234
81	0xbeb6aeb5	-0.35680166
82	0xbf094406	-0.5361942
83	0x3b798178	0.0038071554
84	0xbf111982	-0.56679547
85	0x3f0759e0	0.52871513
86	0x3fb89c96	1.4422786
87	0x3f4f54f6	0.80989015
88	0xbee04d42	-0.43808943
89	0x3e861b6e	0.26192802
90	0xbef1ad36	-0.47202462
91	0x3dcc3cb9	0.099725194
92	0x3f304651	0.68857294
93	0x3e0c776b	0.1371743
94	0xbf9ac093	-1.2090019
95	0xbf41a923	-0.7564871
96	0xbc377a50	-0.011198595
97	0xbde29fc6	-0.110656306
98	0x3ea75d2d	0.32688275
99	0x3e2e3925	0.17013986
100	0xbda0b182	-0.07846357
101	0xbf0f6579	-0.5601421
102	0xbec9fe47	-0.3945181
103	0xbe41b79a	-0.18917695
104	0xbeebc646	-0.46049708
105	0xbf058ae1	-0.5216504
106	0xbf349afd	-0.70548993
107	0xbe705e91	-0.23473574
108	0xbf33eb30	-0.7028074
109	0xbeed62c9	-0.4636443
110	0xbf1fcb14	-0.6241925
111	0xbf04ca84	-0.51871514
112	0x3f2fb889	0.68640953
113	0x3e1576e5	0.14596136
114	0xbfd8a94c	-1.6926665
115	0xbefb18c3	-0.4904233
116	0x3e95e78d	0.29278222
117	0x3f8cce64	1.1000485
118	0x3f78be06	0.9716495
119	0x3f2f9247	0.68582577
120	0x3e86d60c	0.2633518
121	0x3f71e022	0.94482625
122	0x3f8b220e	1.0869768
123	0x3f8f55bc	1.1198039
124	0xbf1e5b15	-0.6185773
125	0xbeae9bbf	-0.341032
126	0xbefb2acb	-0.49056086
127	0xbe9d8860	-0.30768108
128	0xbef6f841	-0.48236278
129	0x3e62daac	0.22153729
130	0xbee69bc7	-0.45040724
131	0xbebaab7f	-0.36458966
132	0xbeb2ed2c	-0.34946573
133	0x3d92df6e	0.07171522
134	0x3c0ea48c	0.008706223
135	0x3e3706ad	0.1787364
136	0xbd8adf96	-0.06780927
137	0xbf06dc73	-0.5268013
138	0x3ea7bdbb	0.3276194
139	0xbf0052a1	-0.5012608
140	0xbe3d4653	-0.18483858
141	0xbe2520cd	-0.16125794
142	0xbeb540b6	-0.35400933
143	0x3e3d4cce	0.1848633
144	0x3f71ec28	0.9450097
145	0x3d863085	0.06552223
146	0xbfe1ea26	-1.7649581
147	0xbf442088	-0.7661214
148	0xbe551a20	-0.20810747
149	0xbef9a8d6	-0.48761624
150	0xbf5b0284	-0.85550714
151	0x3bedd343	0.0072578504
152	0x3c04e684	0.0081116
153	0xbf38fdb3	-0.72262114
154	0xbf2fef12	-0.6872417
155	0xbee5d17e	-0.44886392
156	0xbe6ead19	-0.23308219
157	0xbd3515ab	-0.044210117
158	0xbea8df66	-0.3298294
159	0x3dfa3e87	0.122189574
160	0x3e3d567f	0.18490027
161	0xbf0d5b67	-0.55217594
162	0xbee620a8	-0.4494679
163	0x3dc8ff60	0.09814334
164	0x3ee65fdd	0.44995013
165	0x3f7654fe	0.9622344
166	0x3fe3acec	1.7787147
167	0x3fa6bcf1	1.302641
168	0xbdcc5ed0	-0.099790215
169	0xbe1e4ead	-0.154597
170	0xbe95baab	-0.2924398
171	0xbefdc2c4	-0.49562657
172	0xbefa356a	-0.48868877
173	0xbf12c534	-0.5733216
174	0xbe8b0c22	-0.27157694
175	0xbf14c08c	-0.58106303
176	0xbe2a624c	-0.1663906
177	0xbeca9bed	-0.39572087
178	0x3d7bda15	0.061487276
179	0xbed95230	-0.42445517
180	0x3f6dcb9b	0.928888
181	0x3f89c35c	1.0762744
182	0x3f8f7c67	1.120984
183	0x3f25b550	0.64729786
184	0xbe8aa6e8	-0.27080464
185	0xbf264800	-0.64953613
186	0xbf6017b6	-0.8753618
187	0xbe3e3c97	-0.185778
188	0x3d4ec616	0.05048188
189	0xbe449ab4	-0.1919964
190	0xbea5af22	-0.32360178
191	0xbe15726c	-0.1459443
192	0xbe535bcf	-0.20640491
193	0xbdb2bc88	-0.08727366
194	0xbef3fde0	-0.4765463
195	0xbc1ad30e	-0.009449733
196	0xbebcd858	-0.36883807
197	0xbd99b503	-0.07505228
198	0xbf23d2c6	-0.6399349
199	0x3dc0f9dd	0.09422658
200	0xbbfdd763	-0.0077466234
201	0xbe5cd3e9	-0.21565212
202	0xbed4a79b	-0.41534123
203	0xbd6164bc	-0.05502771
204	0xbeb15acb	-0.34639582
205	0xbe134587	-0.14381991
206	0xbf2bbf81	-0.67089087
207	0x3e3566c3	0.17714982
208	0xbe2201db	-0.1582102
209	0xbed13345	-0.40859428
210	0xbf116463	-0.567938
211	0xbe640b26	-0.22269878
212	0xbd1c0f52	-0.038100548
213	0xbf34a823	-0.70569056
214	0xbf39fa7b	-0.7264783
215	0xbf065e44	-0.5248759
216	0xbee1ed55	-0.44126382
217	0xbde2dcd8	-0.11077279
218	0xbf60df67	-0.87840885
219	0xbd7cedf1	-0.061750356
220	0xbf066844	-0.52502847
221	0x3e73fb5b	0.23826353
222	0xbf1f8917	-0.6231856
223	0xbdeb2417	-0.11481493
224	0xbf074d06	-0.52851903
225	0x3e15966d	0.14608164
226	0x3e6522ad	0.22376509
227	0xbef0873f	-0.46978185
228	0xbe5df812	-0.21676663
229	0x3db07645	0.08616308
230	0x3d88e073	0.06683435
231	0xbf028bca	-0.5099455
232	0xbeb38e11	-0.35069326
233	0x3e2780d4	0.16357738
234	0xbebc46e3	-0.36772832
235	0xbcf11430	-0.029428571
236	0xbe114951	-0.14188124
237	0xbe71835f	-0.2358527
238	0xc0041e5c	-2.064353
239	0xbf185721	-0.5950795
240	0xbea9415e	-0.33057684
241	0x3dac307e	0.08407687
242	0x3d91d96a	0.071215466
243	0xbcec1520	-0.028818667
244	0xbedea210	-0.4348302
245	0x3d325c98	0.043545336
246	0xbf235e4d	-0.63815767
247	0x3dca6cf4	0.098840624
248	0xbf02f8b3	-0.51160735
249	0xbf33e422	-0.7026998
250	0xbf242263	-0.6411497
251	0xbe52ccb8	-0.20585907
252	0xbc90f36e	-0.017694201
253	0xbe0a963f	-0.13533877
254	0xbdc13c12	-0.09435286
255	0x3ea1e01f	0.31616303

fc1.bias f4 [128]
0	0x3fa4f61c	1.2887607
1	0x3e00649e	0.12538382
2	0x3f84bdd4	1.0370431
3	0x3fafb414	1.372683
4	0xbef1c29e	-0.47218794
5	0x3faadeef	1.3349284
6	0x3f8096e7	1.0046052
7	0x3e85c9d9	0.2613056
8	0x3f515a12	0.8177806
9	0x3f830053	1.0234474
10	0x3f5c252a	0.8599421
11	0x3f43dbe1	0.76507384
12	0x3f9f002f	1.2421931
13	0x3f8c7b1a	1.0975068
14	0xbe4ab9e1	-0.1979747
15	0xbef4d64b	-0.47819743
16	0x3f79bd18	0.9755416
17	0x3f9027fe	1.1262205
18	0xbf2cb47e	-0.6746291
19	0x3ed17b9e	0.40914625
20	0x3f2687ec	0.6505115
21	0x3d877e3c	0.06615874
22	0x3f96b3d2	1.1773627
23	0xbc3541a3	-0.011063012
24	0x3f8ba10c	1.0908523
25	0x3f5e54bf	0.8684806
26	0x3f34134d	0.7034195
27	0x3f629774	0.8851235
28	0x3e34a97b	0.17642777
29	0x3df730eb	0.12069877
30	0x3e10f540	0.14156055
31	0x3f84b365	1.0367247
32	0x3f7285cc	0.9473541
33	0x3f847315	1.034762
34	0x3f6c5f0c	0.9233253
35	0x3f79cc3a	0.9757725
36	0x3ec51132	0.3848968
37	0x3f5913cd	0.8479584
38	0x3f72cd4c	0.9484451
39	0x3f783124	0.9694998
40	0x3f93d306	1.1548774
41	0x3e1e9418	0.15486181
42	0x3f8d7025	1.1049849
43	0x3f795c62	0.9740659
44	0x3f5e322b	0.867953
45	0x3eb8b202	0.3607331
46	0x3f4f4f1e	0.809801
47	0x3f6a6d85	0.91573364
48	0x3f863742	1.0485613
49	0x3f5b8eb0	0.857646
50	0x3f8e7769	1.1130191
51	0x3f54acc3	0.83076113
52	0x3f568925	0.83803016
53	0x3f630c9e	0.8869113
54	0xbec41e4f	-0.38304374
55	0x3f87db82	1.0613863
56	0x3f969658	1.1764631
57	0x3fb49336	1.4107425
58	0x3f862c2d	1.0482231
59	0xbeda0b37	-0.4258668
60	0x3f8d06c5	1.1017691
61	0x3f5da7bb	0.8658406
62	0x3f65f388	0.89824724
63	0x3fb51a12	1.4148581
64	0x3f5b0aec	0.8556354
65	0x3f652828	0.895144
66	0x3f94a294	1.1612115
67	0x3f77745e	0.9666194
68	0x3e926cf9	0.28598765
69	0x3f15cf9f	0.5851993
70	0x3fa7889c	1.3088565
71	0xbe78e567	-0.2430626
72	0x3e0bba12	0.13645199
73	0x3f798b88	0.9747853
74	0x3f94ce8d	1.1625534
75	0x3f2dcdc1	0.6789208
76	0x3f453124	0.7702811
77	0x3f8464ef	1.0343302
78	0x3f675aee	0.9037312
79	0x3e157e8f	0.1459906
80	0x3f339290	0.7014551
81	0x3f88efcd	1.0698181
82	0xbecf6009	-0.40502957
83	0x3fa9d7d0	1.3268986
84	0x3f68e629	0.90976197
85	0x3f6f36b1	0.9344283
86	0x3f9983de	1.1993368
87	0x3f95214e	1.1650789
88	0x3f55d70b	0.83531255
89	0x3f9758eb	1.1824011
90	0x3f1ba13e	0.6079291
91	0x3f5f42ea	0.8721148
92	0xbf0b248d	-0.5435265
93	0x3f891dc4	1.0712209
94	0x3f805958	1.0027266
95	0x3f478bdf	0.779478
96	0x3f55bb8f	0.83489317
97	0x3f6e4664	0.9307616
98	0x3f80477e	1.0021818
99	0x3fa4fe8b	1.289018
100	0x3e54e4cc	0.20790404
101	0x3f34d4bd	0.7063711
102	0x3f81716e	1.0112741
103	0x3f6543e4	0.8955672
104	0x3f9cdacf	1.2254275
105	0x3f5118bf	0.81678385
106	0x3f6ff942	0.9373971
107	0x3eb5782f	0.35443255
108	0x3f98f4b1	1.1949674
109	0x3f79c8ed	0.97572213
110	0xbeee719f	-0.4657106
111	0x3ed0fa04	0.40815747
112	0x3f8f6013	1.1201195
113	0x3f5a0e5d	0.85178167
114	0xbc7d12ea	-0.015446404
115	0x3f68981e	0.9085711
116	0x3e704174	0.23462468
117	0x3f97e6cb	1.1867307
118	0x3f8a008f	1.078142
119	0xbea585c2	-0.32328612
120	0x3f4bf384	0.7966845
121	0x3f8bbe7c	1.0917506
122	0x3f377b48	0.7167249
123	0x3f5d2879	0.8638988
124	0x3fa6e07a	1.3037255
125	0x3fab9472	1.3404677
126	0x3f870dcc	1.0551085
127	0x3f799e29	0.9750696

fc2.weight f4 [2, 128]
0	0x3f06a849	0.5260053
1	0xbf8286b3	-1.0197357
2	0x3f1defbe	0.6169394
3	0x3f18136c	0.59404635
4	0xbf1848d0	-0.59486103
5	0x3f32f888	0.6991048
6	0x3f491ba4	0.785578
7	0xbf0a897d	-0.5411604
8	0x3f27251a	0.6529099
9	0x3f530a3c	0.8243749
10	0x3f1c48bd	0.6104849
11	0x3f16a239	0.5884128
12	0x3f507352	0.81425965
13	0x3f418859	0.75598675
14	0xbf09ae7f	-0.53781885
15	0xbeccbc1d	-0.3998727
16	0x3f46aa97	0.7760405
17	0x3f342555	0.70369464
18	0xbf43117f	-0.7619857
19	0xbf70ebec	-0.9410999
20	0x3ef6cc02	0.4820252
21	0xbf89417d	-1.072311
22	0x3f15f34a	0.58574355
23	0xbf828915	-1.0198084
24	0x3f248783	0.64269274
25	0x3f8462c6	1.0342643
26	0x3f3fce54	0.74924207
27	0x3f14cd7d	0.5812605
28	0xbf6e994e	-0.93202674
29	0xbf0a4665	-0.54013664
30	0xbf6ca6aa	-0.9244181
31	0x3f0afc7d	0.54291517
32	0x3f04d29c	0.51883864
33	0x3f3e05ba	0.7422749
34	0x3f2ce779	0.675407
35	0x3f4ec912	0.8077556
36	0xbeeef9fb	-0.46675095
37	0x3f3716be	0.71519077
38	0x3f80dc9b	1.0067323
39	0x3f46dfe9	0.7768541
40	0x3f53155e	0.8245448
41	0xbfa6dc21	-1.3035928
42	0x3f23ec4b	0.6403243
43	0x3f23c53c	0.6397283
44	0x3f338527	0.7012505
45	0xbf53ed4d	-0.8278397
46	0x3f52d90f	0.82362455
47	0x3f24dad2	0.64396393
48	0x3f4a3854	0.789922
49	0x3f2674f9	0.65022236
50	0x3f6660cb	0.89991444
51	0x3f27c820	0.6553974
52	0x3f319b62	0.6937772
53	0x3f82bcac	1.0213828
54	0x3a6fdc48	0.0009149951
55	0x3f1c0531	0.6094542
56	0x3ee2a402	0.44265753
57	0x3f173843	0.59070224
58	0x3f2dac7b	0.6784131
59	0xbf130e01	-0.57443243
60	0x3f1cb22b	0.6120936
61	0x3f50f172	0.81618416
62	0x3f308e77	0.68967384
63	0x3f42d48c	0.7610557
64	0x3f16b633	0.58871764
65	0x3f3a4b44	0.72771096
66	0x3f30792c	0.68934894
67	0x3f3f84c1	0.7481194
68	0xbf6b32b5	-0.9187425
69	0x3ecc2ed4	0.39879477
70	0x3f47e7c8	0.78088045
71	0xbf1f0d37	-0.6212954
72	0xbef26a99	-0.47346953
73	0x3f35038a	0.70708525
74	0x3f275ed8	0.65379095
75	0x3f700851	0.9376269
76	0x3f2cc260	0.6748409
77	0x3f5d7b04	0.8651583
78	0x3f22697a	0.63442194
79	0xbf9d70a6	-1.2300003
80	0x3f25cf64	0.6476958
81	0x3f5ebaca	0.8700377
82	0xbe48d5a2	-0.19612744
83	0x3f1f6229	0.62259156
84	0x3f214fbe	0.630123
85	0x3f07869f	0.5293979
86	0x3f51c68c	0.81943583
87	0x3f0be71d	0.54649526
88	0x3f1e0af7	0.6173548
89	0x3f44d7b7	0.76891655
90	0x3f5173d4	0.81817365
91	0x3f4a4011	0.7900401
92	0xbe8a111c	-0.26966178
93	0x3f517902	0.8182527
94	0x3f281f66	0.6567291
95	0x3f74e57c	0.95662665
96	0x3f948c5e	1.1605337
97	0x3f48f8ce	0.78504646
98	0x3f5eb96e	0.87001693
99	0x3f15d03c	0.58520865
100	0xbf4a5b55	-0.7904561
101	0x3f4ce5b4	0.80038
102	0x3f3e81f3	0.74417037
103	0x3f76c7ec	0.96398807
104	0x3f1953d2	0.59893525
105	0x3f3b9e82	0.7328874
106	0x3f10a46d	0.56500894
107	0xbd9d5b91	-0.076834805
108	0x3f6841b7	0.9072527
109	0x3f269397	0.65068954
110	0xbf3d2e20	-0.73898506
111	0x3ec52803	0.3850709
112	0x3f469246	0.77566946
113	0x3ef9411b	0.48682484
114	0xbf6f9027	-0.93579334
115	0x3f3f32ee	0.7468709
116	0xbfc76f94	-1.5580926
117	0x3f1f0370	0.6211462
118	0x3f7d6669	0.9898439
119	0xbdd7fcf8	-0.10546297
120	0x3f5c61f8	0.8608699
121	0x3f1221c2	0.5708276
122	0x3f4b7444	0.7947428
123	0x3f2dfd23	0.6796438
124	0x3f4a3bdb	0.7899758
125	0x3f20c161	0.6279507
126	0x3f17a79e	0.5924014
127	0x3f6018f7	0.87538093
128	0x3ee7012b	0.4511808
129	0xbf82167a	-1.0163109
130	0x3f225ad4	0.6341984
131	0x3f28aa69	0.65885025
132	0xbf90877a	-1.1291344
133	0x3f2cb1cb	0.6745879
134	0x3f387c0c	0.7206428
135	0xbf155818	-0.58337545
136	0x3f45aab6	0.7721361
137	0x3f580ec1	0.8439751
138	0x3f28a271	0.65872866
139	0x3f1f115d	0.6213587
140	0x3f258f9f	0.64672273
141	0x3f395ec0	0.724102
142	0xbf968c94	-1.1761651
143	0xbf87029d	-1.0547673
144	0x3f55c107	0.8349766
145	0x3f30b414	0.6902478
146	0xbf3d5f14	-0.739732
147	0xbf06289d	-0.5240572
148	0x3ee97b8e	0.45602077
149	0xbf4451d2	-0.7668735
150	0x3f349caf	0.7055158
151	0xbf840325	-1.031346
152	0x3f444e40	0.766819
153	0x3f865baa	1.0496724
154	0x3f3a435d	0.7275904
155	0x3f28ec8b	0.65985936
156	0xbfa5635e	-1.292095
157	0xbf0235ae	-0.5086316
158	0xbf533b7d	-0.82512647
159	0x3f1dd467	0.61652225
160	0x3eec8311	0.46193746
161	0x3f2f6186	0.68508184
162	0x3f3aa104	0.7290194
163	0x3f44ca29	0.7687097
164	0xbfa7306c	-1.3061652
165	0x3f44cde4	0.76876664
166	0x3f82d172	1.0220168
167	0x3f5a402c	0.8525417
168	0x3f5683b4	0.83794713
169	0xbf8b0126	-1.0859725
170	0x3f26d241	0.6516457
171	0x3f42f3c4	0.76153207
172	0x3f39505d	0.7238825
173	0xbf2ade7c	-0.66745734
174	0x3f63d729	0.89000183
175	0x3f189d91	0.5961543
176	0x3f29e0e6	0.6635879
177	0x3f0daa0b	0.5533759
178	0x3f53feee	0.82810867
179	0x3f1084d5	0.56452686
180	0x3f2fd3f6	0.686828
181	0x3f8f3682	1.118851
182	0xbe7bf28f	-0.24604248
183	0x3f0c345a	0.5476738
184	0x3f01f737	0.50767845
185	0x3f0178f1	0.50575167
186	0x3f2459da	0.641996
187	0xbf85ad79	-1.0443565
188	0x3f21b20a	0.6316229
189	0x3f3d81bd	0.7402609
190	0x3f2903f0	0.66021633
191	0x3f3f2c2e	0.7467679
192	0x3f36ac73	0.71356887
193	0x3f2f6653	0.6851551
194	0x3f2ba70e	0.6705178
195	0x3f449a2b	0.7679774
196	0xbf56bc78	-0.8388133
197	0x3ee7cb40	0.45272255
198	0x3f4971be	0.7868918
199	0xbf2c8d1a	-0.67402804
200	0xbeebadd4	-0.46031058
201	0x3f339a20	0.7015705
202	0x3f4f547d	0.80988294
203	0x3f80ad32	1.0052855
204	0x3f58272a	0.8443476
205	0x3f568136	0.8379091
206	0x3f18df87	0.59716076
207	0xbf98f642	-1.1950152
208	0x3f1ba120	0.6079273
209	0x3f5ccbae	0.8624829
210	0xbf8ef15a	-1.1167405
211	0x3ef62de1	0.48081878
212	0x3f1b4986	0.6065906
213	0x3f0e233b	0.5552251
214	0x3f592945	0.848286
215	0x3f0d1fa3	0.551264
216	0x3f21442e	0.6299466
217	0x3f515057	0.81763214
218	0x3f5c1b48	0.8597913
219	0x3f25b79f	0.6473331
220	0xbf469270	-0.77567196
221	0x3f76f8e8	0.9647355
222	0x3f0adef7	0.5424647
223	0x3f69bdea	0.9130541
224	0x3fa450bc	1.2837138
225	0x3f39d49e	0.72590053
226	0x3f8253a7	1.0181779
227	0x3f1f7361	0.6228543
228	0xbf6e09cd	-0.92983705
229	0x3f47cc99	0.78046566
230	0x3f32c8d1	0.6983767
231	0x3f61589f	0.8802585
232	0x3ef58542	0.4795323
233	0x3f58856a	0.84578574
234	0x3ed0c469	0.4077485
235	0xbe7f096a	-0.24905935
236	0x3f60f185	0.8786853
237	0x3f1184dc	0.5684335
238	0xbf265058	-0.64966345
239	0x3dfe7906	0.12425427
240	0x3f44ac90	0.7682581
241	0x3f11b779	0.5692058
242	0xbf86665d	-1.0499989
243	0x3f5b75c8	0.85726595
244	0xbf86271c	-1.0480685
245	0x3f1b440f	0.60650724
246	0x3f720220	0.9453449
247	0xbe6bbfa1	-0.2302232
248	0x3f437866	0.7635559
249	0x3f0b6935	0.5445741
250	0x3f59e979	0.85121876
251	0x3f345042	0.70434964
252	0x3f3ce12f	0.737811
253	0x3f1c482f	0.61047643
254	0x3f20c485	0.62799865
255	0x3f4a9487	0.79132885

fc2.bias f4 [2]
0	0x3f04b42a	0.5183741
1	0x3efab129	0.48963287
