runs/cartpole2.pt (torch, 2673 bytes, 4 tensors)

fc1.weight f4 [10, 4]
0.10712458 0.89111227 0.91201776 0.8770572 0.77518916 0.8034239 0.18699639 0.12313814
1.5330167 1.1068888 1.1320255 0.6526979 0.61040324 -1.2558136 -3.6417902 -1.8032011
1.1358769 -0.98520625 -3.787227 -1.2968062 0.5727735 0.92406523 1.3126702 0.39669192
0.88780206 1.0007048 1.0750679 0.966282 0.42483827 -0.6912976 -3.2412434 -1.5088896
0.88954604 0.79210114 0.18024714 0.5355984 0.76414406 1.0012989 1.0784103 0.31232667
00000000: 2264 db3d ef1f 643f ff79 693f d286 603f
00000010: cc72 463f 30ad 4d3f fb7b 3f3e d92f fc3d
00000020: e439 c43f 88ae 8d3f 36e6 903f 3617 273f
00000030: 6343 1c3f 80be a0bf 1713 69c0 4bcf e6bf
00000040: 6a64 913f 7a36 7cbf ed61 72c0 bffd a5bf
00000050: 49a1 123f 8a8f 6c3f 9405 a83f 341b cb3e
00000060: ff46 633f 1817 803f d39b 893f 425e 773f
00000070: 6784 d93e e1f8 30bf 8870 4fc0 4b23 c1bf
00000080: 4ab9 633f 24c7 4a3f b592 383e fa1c 093f
00000090: f29e 433f 902a 803f 5909 8a3f 48e9 9f3e

fc1.bias f4 [10]
3.109363 3.8004599 3.8691232 -0.07892897 -0.022339394 3.4525669 3.5572808 -0.37470627
3.662853 3.9785247
00000000: ceff 4640 bc3a 7340 b79f 7740 83a5 a1bd
00000010: 1b01 b7bc dbf6 5c40 7daa 6340 80d9 bfbe
00000020: 2f6c 6a40 26a0 7e40

fc2.weight f4 [2, 10]
2.3224702 3.6297874 3.5488188 -1.8634577 -1.209086 3.8476377 2.9946089 -1.9168671
2.9820805 4.0199294 3.1291277 3.4544692 3.6732483 -3.3410273 -2.6633053 3.5304847
2.9975128 -1.6232467 3.0685065 3.5992682
00000000: 5aa3 1440 704e 6840 d91f 6340 c885 eebf
00000010: 54c3 9abf b23f 7640 aca7 3f40 e75b f5bf
00000020: 68da 3e40 43a3 8040 a143 4840 0616 5d40
00000030: 8016 6b40 64d3 55c0 9873 2ac0 76f3 6140
00000040: 40d7 3f40 8cc6 cfbf 6962 4440 695a 6640

fc2.bias f4 [2]
2.5389724 2.8117468
00000000: 867e 2240 a9f3 3340
