runs/cartpole1.pt (torch, 2673 bytes, 4 tensors)

fc1.weight f4 [10, 4]
0.3198495 -1.1107081 -0.30108774 -0.513398 -0.11871627 -1.1264392 -0.6858342 -0.6336604
0.31678122 0.5688388 0.7253686 0.14227358 -0.7294558 -1.7138716 -1.674563 -1.1370956
-1.4917877 0.8893403 5.9669065 2.7116811 0.18159744 -0.8934318 -0.9061231 -0.20765291
-0.014807272 -1.9507658 -1.527119 -1.0098556 -0.11649464 -1.1950499 -1.8470489 -0.8497774
0.046430968 -1.1424438 -1.3262239 -0.35815778 0.059390172 -1.3762847 -1.7158552 -0.48866108
00000000: 50c3 a33e af2b 8ebf 2c28 9abe 0d6e 03bf
00000010: 8421 f3bd 292f 90bf d592 2fbf 9137 22bf
00000020: 2631 a23e 6b9f 113f c2b1 393f 2ab0 113e
00000030: 9ebd 3abf 2560 dbbf 1558 d6bf 598c 91bf
00000040: e6f2 bebf ceab 633f e6f0 be40 2f8c 2d40
00000050: aef4 393e f2b7 64bf aff7 67bf f7a2 54be
00000060: 339a 72bc b2b2 f9bf a378 c3bf f342 81bf
00000070: be94 eebd 65f7 98bf 196c ecbf 038b 59bf
00000080: 662e 3e3d 993b 92bf b4c1 a9bf 7560 b7be
00000090: 1c43 733d 192a b0bf 25a1 dbbf c931 fabe

fc1.bias f4 [10]
2.8477783 2.9501977 0.9566675 2.9446063 0.05288643 2.678117 3.088332 3.3476741
3.3022892 3.2418144
00000000: 0042 3640 0ad0 3c40 29e8 743f 6e74 3c40
00000010: 719f 583d 4566 2b40 3ba7 4540 4b40 5640
00000020: b558 5340 e379 4f40

fc2.weight f4 [2, 10]
3.4070318 3.371976 0.44098276 3.5549257 -3.6400278 2.4542174 3.1248887 3.2869182
2.3993914 2.5273337 2.9877846 3.454596 0.59792256 3.7254121 -2.540309 2.4361122
2.9372084 3.1275394 2.4838486 2.9202242
00000000: cf0c 5a40 74ce 5740 7ec8 e13e e783 6340
00000010: 37f6 68c0 e611 1d40 2dfe 4740 de5c 5240
00000020: a18f 1940 d6bf 2140 dd37 3f40 1a18 5d40
00000030: 7411 193f 276d 6e40 6c94 22c0 43e9 1b40
00000040: 39fb 3b40 9b29 4840 60f7 1e40 f4e4 3a40

fc2.bias f4 [2]
2.269376 1.8155384
00000000: 753d 1140 9063 e83f
